Layer (type)                 Output Shape              Param #   
=================================================================
embedding (Embedding)        (None, 417, 64)           778752    
_________________________________________________________________
bidirectional (Bidirectional (None, 417, 256)          197632    
_________________________________________________________________
dense (Dense)                (None, 417, 64)           16448     
_________________________________________________________________
flatten (Flatten)            (None, 26688)             0         
_________________________________________________________________
dense_1 (Dense)              (None, 1)                 26689     
=================================================================
Total params: 1,019,521
Trainable params: 1,019,521
Non-trainable params: 0
_________________________________________________________________
None
Train on 457135 samples, validate on 195915 samples
Epoch 1/6
457135/457135 [==============================] - 5289s 12ms/sample - loss: 0.0844 - accuracy: 0.9702 - val_loss: 0.0550 - val_accuracy: 0.9842
…
